…
__________________________________________________ 64 x 100 Linear 20000 True ReLU BatchNorm1d 200 True ____________________________________________________________________________ 64 x 2 Linear 202 True ____________________________________________________________________________ Total params: 34,014 Total trainable params: 34,014 Total non-trainable params: 0 Optimizer used: &lt;function Adam at 0x7f9f1e50d320&gt; Loss function: FlattenedLoss of CrossEntropyLoss() Model unfrozen Callbacks: - TrainEvalCallback - Recorder - ProgressCallback . learn.model . TabularModel( (embeds): ModuleList( (0): Embedding(10, 6) (1): Embedding(17, 8) (2): Embedding(8, 5) (3): Embedding(16, 8) (4): Embedding(7, 5) (5): Embedding(6, 4) (6): Embedding(3, 3) (7): Embedding(43, 13) (8): Embedding(3, 3) ) (emb_drop): Dropout(p=0.0, inplace=False) (bn_cont): BatchNorm1d(6, eps=1e-05, momentum=0.1, affine=True, track_running_stats=True) (layers): Sequential( (0): LinBnDrop( (0): Linear(in_features=61, out_features=200, bias=False) (1): ReLU(inplace=True) (2): BatchNorm1d(200, eps=1e-05, momentum=0.1, affine=True, track_running_stats=True) ) (1): LinBnDrop( (0): Linear(in_features=200, out_features=100, bias=False) (1): ReLU(inplace=True) (2): BatchNorm1d(100, eps=1e-05, momentum=0.1, affine=True, track_running_stats=True) ) (2): LinBnDrop( (0): Linear(in_features=100, out_features=2, bias=True) ) ) ) .",
            "url": "https://leungadh.github.io/coding/fastai/cookbook/tabular/2022/08/02/_03_24-CB-training_with_tabular_datasets.html",
            "relUrl": "/fastai/cookbook/tabular/2022/08/02/_03_24-CB-training_with_tabular_datasets.html",
            "date": " • Aug 2, 2022"
        }
        
    
  
    
        ,"post4": {
            "title": "Using MNIST_Sample Model",
…
